Data_Rimless_Wheel/koopman_models/dmdc/B_2000_pass_act_tb_LA36_0.01dt_CCK.npy (npy, 2792 bytes, 1 tensors)

array f8 [111, 3]
000000 00 00 00 00 c0 b9 f0 3c 00 00 00 00 00 e5 c6 bc
       3.713826121631847e-15 -6.354508932937541e-16
000010 00 00 00 00 00 14 ba 3c 00 00 00 00 a0 9a db 3c
       3.619066851756614e-16 1.5323300354280756e-15
000020 00 00 00 00 40 e8 d3 bc 00 00 00 00 00 53 b0 bc
       -1.1050730643058504e-15 -2.2654404394084615e-16
000030 00 00 00 00 00 91 e4 3c 00 00 00 00 58 83 03 bd
       2.2833297752544723e-15 -8.665540073699018e-15
000040 00 00 00 00 f0 a5 dd 3c 00 00 00 00 c0 41 d2 3c
       1.6458053453058397e-15 1.0134579807308253e-15
000050 00 00 00 00 c0 6f ef bc 00 00 00 00 40 5c c8 3c
       -3.4901552134480873e-15 6.761355798162727e-16
000060 00 00 00 00 00 ac d7 3c 00 00 00 00 00 57 b7 bc
       1.3140530330524314e-15 -3.2390539903004445e-16
000070 00 00 00 00 00 e9 b1 3c e0 71 bc 5b 1c 03 1f bf
       2.485533480423019e-16 -0.00011830196939083921
000080 a2 cb 21 df 98 70 31 bf ea d0 59 3f 20 ba 42 3f
       -0.00026611072747256316 0.0005715043505021531
000090 da 28 f7 7b 97 69 77 3f d8 10 a8 08 93 72 6b 3f
       0.005715934500992692 0.0033505317453564713
0000a0 ba 43 f8 0b f9 36 73 3f 96 e7 d9 93 87 4c 20 3f
       0.004691098059553528 0.00012435107230484844
0000b0 78 6e 4d 1a 7e fb 49 3f 60 90 42 8b 10 36 44 bf
       0.0007929197059683554 -0.0006167965680288316
0000c0 4f 30 36 8b c7 5c 21 40 70 6c b8 94 9b 1b f6 3e
       8.681209898342926 2.1083681799632622e-05
0000d0 f8 39 82 da f5 1e 07 3f 60 dd c9 88 b7 5c 12 bf
       4.4099691252619895e-05 -7.004614071514292e-05
0000e0 a1 d0 43 29 14 5d 21 40 58 c1 95 8b aa 3b 1f 3f
       8.681794442680543 0.00011914471078511757
0000f0 e0 11 dd de 4f b0 03 bf 70 b7 f0 00 31 72 f9 be
       -3.7553250747754873e-05 -2.426725410147691e-05
000100 12 4b 1c 04 d1 5c 21 40 f7 18 35 c2 93 2e 78 bf
       8.681282165960088 -0.00590379446231836
000110 b6 a6 5f b3 f3 a8 71 3f 46 f3 ca b6 70 17 4f bf
       0.004311515765928744 -0.0009488392220969664
000120 30 39 21 8a 58 ec 01 3f 25 45 27 89 47 6e 70 bf
       3.418584061930447e-05 -0.004011420666260511
000130 42 21 fe cb 95 71 50 bf 4e 19 36 d2 22 4a 7f bf
       -0.0010036433086231954 -0.0076390609932615715
000140 44 fc 8c 28 8e 50 2c 3f d0 96 53 cf 09 8e 62 bf
       0.0002160237820820495 -0.0022649947737701584
000150 3e 7c d5 e9 cf 88 7c bf 55 19 c9 07 90 13 75 bf
       -0.006966411744854515 -0.005145609492109256
000160 05 af 4a f4 02 6f 81 bf fb ee e7 12 30 b5 92 3f
       -0.008512518959228563 0.018269301561288902
000170 aa af d0 73 08 c4 47 bf 0e ed ef ec 29 40 28 3f
       -0.0007252732535838375 0.0001850176981575764
000180 1f 8b 06 16 85 22 66 3f be ed c7 93 37 25 70 3f
       0.0027020072304407973 0.003941742991169615
000190 ca c2 0e 7c 66 d8 46 3f 8a 63 0d 11 bc 63 3f 3f
       0.0006971836484038426 0.0004789671084402472
0001a0 8a 55 d1 66 5a 58 7f bf c7 0c bb ed 34 68 74 bf
       -0.007652619487165233 -0.004982191803438236
0001b0 e4 c0 7f 43 d7 88 81 bf a6 b8 8f be 78 97 39 3f
       -0.008561784503371368 0.00039049814091541635
0001c0 0f 66 0a 01 59 e9 7e bf e6 d9 23 b7 08 52 67 bf
       -0.00754675643170223 -0.002846734068153045
0001d0 2e 3e ca b0 08 89 64 3f 6c 27 8c 63 18 c4 63 bf
       0.0025067491281516507 -0.002412841448294614
0001e0 d3 f5 72 a6 38 d1 65 3f a3 0b 5f e5 22 6f 65 bf
       0.002663241047769141 -0.0026164704858912687
0001f0 aa fd 45 80 e8 7b 6c bf 3a 78 d0 df de 02 84 3f
       -0.003477052787445441 0.009771100240012588
000200 ca 7f 67 f6 59 03 61 bf a4 06 dd 62 97 73 84 bf
       -0.0020767933922200875 -0.009986098007746698
000210 4f eb c6 9d 37 e4 3c bf c8 74 f8 7c 10 77 21 3f
       -0.0004408489019415611 0.0001332481028705533
000220 de fc cb e8 2f ce 7c bf 22 f2 26 65 0c 58 66 bf
       -0.00703257288546341 -0.002727531632642292
000230 28 27 1f 55 98 03 69 bf 34 38 74 87 15 82 80 bf
       -0.00305347206537911 -0.008060615726687904
000240 fb 33 fa b1 6c c4 6f bf e9 37 d3 80 dd 1f 56 bf
       -0.0038778422311396255 -0.0013503707044040197
000250 44 78 02 8b 33 bb 6c 3f 09 2f 36 c4 c0 04 82 bf
       0.003507233304914899 -0.008798128116516606
000260 c4 05 b4 c7 eb c5 84 3f 51 e2 7c 39 72 82 73 bf
       0.010143129379232792 -0.0047630750557848415
000270 41 ec 5b ae 85 23 62 bf c6 11 84 09 f1 81 87 bf
       -0.002214203925971187 -0.0114783125905057
000280 85 d7 b7 13 73 3e 86 bf 1c 27 95 65 26 e5 48 3f
       -0.010861300505876201 0.0007597386822137705
000290 3f 0a aa 90 60 0f 30 3f c0 ee 35 7e 0d 7f 56 3f
       0.0002450571779847622 0.0013730651633911267
0002a0 7a 53 92 ca 7c 09 68 3f 8e a5 86 5d c6 21 63 bf
       0.002934211476324608 -0.0023354410479511983
0002b0 79 46 a6 19 29 4a 84 3f a6 fa 08 36 10 33 7a bf
       0.009907075019131672 -0.006396354031095319
0002c0 b6 8a b8 52 9a 0a 33 bf 22 fc 38 06 78 54 66 bf
       -0.00029054896978856647 -0.002725824758982324
0002d0 36 a1 eb e1 87 89 71 bf 07 bc 04 4e f2 ea 82 bf
       -0.0042815502081128744 -0.009237187391219604
0002e0 9e 10 60 fa 21 39 5f 3f 0e 8f cc 0a 0b 04 74 3f
       0.0019057113472636176 0.004886668332605882
0002f0 60 36 95 c8 fe 2e 6d bf cd 24 14 76 c7 d3 6a 3f
       -0.003562448143077643 0.0032748122909010747
000300 f5 c4 17 a4 fc 69 7d 3f a2 f1 c9 3c 00 24 81 bf
       0.007181155089243098 -0.008369447569969438
000310 42 7e 50 1d 14 b1 92 bf e1 02 ee 5a bd 9e 6b bf
       -0.018253626145563702 -0.00337159141003017
000320 d5 92 bb ce 74 48 53 bf 56 62 9f 5d e0 2b 78 3f
       -0.0011769428919531828 0.005901218823020379
000330 4c 64 9c 87 2c 65 85 3f b6 8e 66 7e 9d f3 59 bf
       0.010446880234257126 -0.0015839612984586532
000340 0a 60 6e 99 8c 7c 3f bf b5 2d c7 87 c7 a7 60 3f
       -0.00048044617272458066 0.0020331284597198914
000350 bf 3a 87 97 2e de 80 bf 8e 46 40 69 a8 ba 72 bf
       -0.008236278533244044 -0.004572542053226448
000360 8e 05 0d 3f a1 cf 4a bf 85 2c 70 41 e6 8b 6e bf
       -0.0008182084403431254 -0.0037288186244999765
000370 d0 77 fb a1 24 42 f9 3e 0a 3c 6e ee f3 dc 40 3f
       2.408826014643051e-05 0.0005146208830967291
000380 9e 9c 74 b1 58 b2 68 bf 96 1c 51 67 0f 4a 46 3f
       -0.0030147297180920926 0.000680215379028309
000390 ad f0 fa ed d1 63 6f bf dc a8 54 98 2a 4f 67 bf
       -0.003831777590532401 -0.0028453666624460427
0003a0 ba 4b 37 47 c6 11 7b bf 48 d0 a4 0a 59 a1 55 3f
       -0.006608747982187186 0.0013202065989164225
0003b0 9b b5 bd 70 64 c5 72 bf 05 c6 33 84 a9 69 3b bf
       -0.004582779259960114 -0.0004182852610049306
0003c0 e5 83 33 09 d8 a8 7d bf 66 be f3 76 82 b8 79 bf
       -0.007241100206756256 -0.006279477717938775
0003d0 bd 4e eb 93 db 35 93 bf 87 16 bf d3 a2 b5 88 3f
       -0.01876013841940848 0.01206519325922818
0003e0 ec 0a 42 34 75 26 72 3f 33 64 18 0a fe 94 94 3f
       0.00443120749344204 0.02009961067787831
0003f0 cc 1c ce e9 94 57 72 3f bb ff 91 10 c3 68 70 bf
       0.004478055660803903 -0.004006158801644173
000400 54 62 68 e0 46 7d 6c 3f cc 7c 9f 02 b1 8c 66 bf
       0.0034777054127171168 -0.0027526337844246736
000410 93 a2 b1 b3 ca e6 73 bf 7d f3 40 c4 f3 ca 60 bf
       -0.0048587720913039366 -0.002049900156662009
000420 38 2e 86 f7 11 22 73 3f 89 1e 25 97 23 4f 65 bf
       0.0046711637336432285 -0.002601212990302863
000430 4e aa 91 8d c0 80 53 3f d0 31 7c a4 17 5f 15 bf
       0.0011903648758343657 -8.152562906733126e-05
000440 e2 ca a0 92 bb ec 71 bf 82 1e d4 1b 81 0f 69 bf
       -0.004376156526677307 -0.0030591508535769427
000450 8e 67 fe b1 e3 1d 5e bf ac 13 cd 82 b8 42 4e 3f
       -0.0018381808840559374 0.0009234810764629973
000460 9f 2e e0 e3 90 22 72 3f a6 1d da 1c 2f 04 56 bf
       0.004427495934588826 -0.001343770988940432
000470 88 9f 7c b8 dc f7 35 bf 7e bc 79 c3 8f 11 65 3f
       -0.0003352083081034009 0.0025718505747174816
000480 ac 4a a8 b2 a4 92 67 3f 90 e1 97 b5 cf 6c 69 3f
       0.002877542186305723 0.003103643114396877
000490 9c 63 49 d1 2e 9e 72 3f c4 e2 5c 52 24 a2 92 3f
       0.004545386200867887 0.01819664719298221
0004a0 71 e2 ff f4 53 f1 60 bf 4f b6 ff 13 28 80 37 3f
       -0.002068199137280673 0.0003585908743833675
0004b0 be cd c3 00 1d a3 78 bf b1 7e 10 c3 21 df 5f 3f
       -0.006014931958123025 0.0019452886301748846
0004c0 f7 70 14 d4 15 98 32 bf 5e 99 bf 36 e8 8e 6a 3f
       -0.00028372319145987486 0.00324197153348675
0004d0 cb be d1 12 2c a1 53 3f fc 48 bb e8 74 0d 80 3f
       0.001198094406642913 0.007838166572956322
0004e0 50 9f 50 27 c9 c3 16 3f 8c d2 c0 f7 44 e9 6d bf
       8.684077495557424e-05 -0.00365127058287335
0004f0 37 76 ff 69 1f 84 75 bf 8d 88 75 57 21 11 90 bf
       -0.005252955161237297 -0.015690346682625523
000500 91 51 79 ae 63 93 6e 3f 4f ae 71 12 96 56 7a bf
       0.0037323901085903406 -0.0064302313031521915
000510 1b ae d6 63 1d fc 79 3f 4d 2a 2f e7 2a 59 5b bf
       0.006343951038995789 -0.0016692084288815357
000520 dd 63 ea ee f7 f9 60 bf e0 2c 00 b6 58 d6 56 3f
       -0.0020723192640841174 0.0013938776319289345
000530 c8 e4 ab 34 bd c0 32 bf af e3 d2 54 e3 95 7b bf
       -0.0002861463478179391 -0.006734741223390835
000540 71 3c 9d 24 7b aa 61 3f 26 16 9c 2f 28 35 6c bf
       0.0021564870011512795 -0.0034433159715969884
000550 c3 28 8f 11 8a 78 88 bf 6a d5 b3 0c 68 44 68 3f
       -0.011948660527100313 0.0029623062342760036
000560 1f 64 99 a2 1e 88 71 bf d2 b4 cb a0 e7 7a 47 3f
       -0.004280204456869745 0.0007165556904432885
000570 3a 7c 38 57 1a a1 6a 3f da b7 80 4b cf f0 52 3f
       0.003250647970858303 0.0011560463299349262
000580 6f cb e0 7b 86 6d 60 3f 56 b3 28 95 50 b6 79 bf
       0.0020053507460259727 -0.006277384544358741
000590 e0 79 08 5e 97 3d 4f bf 85 b9 3f 84 a7 c2 59 bf
       -0.0009533871744372112 -0.0015722881225844487
0005a0 9a 58 51 d7 8e 53 53 3f 86 f8 20 fd 52 98 50 3f
       0.0011795897419424662 0.0010128794133517373
0005b0 88 20 6f 1d 37 ff 6b 3f 08 06 aa f8 12 f6 44 bf
       0.003417594572486197 -0.0006396858819501259
0005c0 77 4d ca e1 0e a9 65 bf 80 f5 a2 9f a4 a1 7a bf
       -0.002644089762108666 -0.006501811085568021
0005d0 05 54 cb b6 8e fa 89 3f 98 00 16 d6 0a 67 40 bf
       0.012684931710660772 -0.0005005648528566718
0005e0 79 aa 72 97 a9 7f 96 bf c0 d0 d5 fa 17 b1 fe be
       -0.021971368664404942 -2.926995482739679e-05
0005f0 5c 49 f8 04 49 b8 6a bf b0 54 8e c8 c7 a3 62 3f
       -0.0032617021713658278 0.002275362207408614
000600 55 bd 8b c3 7d c0 72 bf dd 6e aa c9 02 a5 74 bf
       -0.004578105225604053 -0.005040179147410587
000610 a2 b7 10 37 1a c7 6a 3f 40 a4 cb aa 38 68 6f 3f
       0.0032687675489091053 0.0038338763027821188
000620 cf ab 84 30 3a 15 42 bf 8b ee 59 cb 5b 00 69 3f
       -0.0005518468979394067 0.0030519287927839914
000630 50 f5 5d bd 7c eb 57 bf fb 56 aa 2f 6e 75 53 3f
       -0.0014599531327513411 0.0011876655613937681
000640 b7 e4 e4 b8 18 2b 72 bf 26 94 42 04 03 14 7f 3f
       -0.004435631343136118 0.0075874440991912425
000650 06 43 91 64 80 95 40 3f de b5 8d 35 80 06 86 bf
       0.0005061032217189294 -0.010754586824726905
000660 13 69 da 90 27 f8 76 3f fc fa 16 55 c4 7b 3c 3f
       0.005607752374681379 0.00043462317725222166
000670 cd c1 7f 70 32 05 91 bf 54 3e ab 1f 2a 08 78 3f
       -0.016621387592694426 0.005867161317567222
000680 bc a9 3e b3 fe 69 85 3f cd 5c ae 33 97 59 7e bf
       0.010456075520626544 -0.0074096590350542614
000690 01 20 04 59 82 e9 5d 3f a5 15 b8 64 a6 f4 5f bf
       0.001825692455954098 -0.001950418943012047
0006a0 22 d2 5e 26 3d 3c 60 bf eb 39 c5 0d a0 47 65 3f
       -0.00198184913002765 0.0025976301241492548
0006b0 3d 0c 63 c4 c5 91 72 3f 71 7f c7 03 c0 95 45 bf
       0.004533550765873304 -0.000658720738609715
0006c0 8c 46 a1 10 a1 f9 6f bf c7 5b f6 64 55 47 7a bf
       -0.0039032121467606536 -0.0064156852453355956
0006d0 09 61 e8 c1 1f af 6a bf 11 a8 d2 22 33 d4 81 3f
       -0.0032573337805496022 0.008705520153245801
0006e0 41 ae 1b 90 c8 f1 7a bf 53 8e 1a 60 2e cf 83 bf
       -0.006578238915362856 -0.009672510440686432
0006f0 16 85 7e 47 fe b3 5f bf 77 bc e4 f0 77 76 7b 3f
       -0.0019350035854375828 0.006704777259343256
000700 d2 c2 ab 53 a7 f5 6b bf 82 32 d9 ba e1 08 72 bf
       -0.003413035211785911 -0.004403001553850873
000710 7a 80 86 81 7a 2f 74 bf 25 c3 de 44 04 ba 6b bf
       -0.004928091563130116 -0.003384598100602781
000720 40 1b 7d f7 27 80 4f bf 42 2b e5 0e b9 43 7c 3f
       -0.0009613223219070224 0.0069005230746579955
000730 0f f9 fa 8c eb ea 80 bf eb ca ce 63 9f 0b 63 3f
       -0.00826057456958698 0.0023248780330161665
000740 7b 4c 3a 89 bf ca 50 3f d7 03 7b c9 41 65 68 3f
       0.0010249014348218388 0.0029779705908769927
000750 c6 ad 79 c4 0b 04 57 3f 6a f3 e1 b3 fc 78 56 3f
       0.001404773227387733 0.0013716190146901516
000760 48 32 b0 20 c9 cc 72 bf 57 af 13 c7 b3 7f f9 3f
       -0.0045898300695737596 1.5936773086968594
000770 a5 ab 3d 6b f9 52 f5 bf 42 d4 8f bc ce 0b fc 3f
       -1.3327573956582708 1.7528827062317451
000780 20 5d e2 e6 e4 02 5e bf 0c aa b9 ff ad fd 6f bf
       -0.0018317447061571637 -0.0039051435867822944
000790 dc d1 ca 16 f9 d6 50 3f cd 1e b5 42 ec 11 66 bf
       0.0010278160581665896 -0.002694093176305623
0007a0 a7 a2 02 3d 10 cb 73 3f 50 ff d1 ca 32 ac 30 bf
       0.004832328253691876 -0.00025440444989753997
0007b0 2c 71 81 9c 1a bf 93 3f 0f b0 da a4 44 63 78 bf
       0.01928369121775224 -0.00595404447600957
0007c0 46 d2 f7 04 9c 02 6c bf 4f 21 9a f3 ec 85 70 3f
       -0.003419213033107024 0.004033971397469151
0007d0 c4 6a 2d 74 7d 58 59 3f d4 99 4f 85 d6 e8 77 bf
       0.0015469765791837212 -0.005837285968459633
0007e0 e0 f8 50 63 7c e6 67 bf 21 d2 fc 52 7d ec 79 3f
       -0.0029175214245063946 0.006329049632587431
0007f0 d9 d5 52 e8 28 2f 5b 3f 73 80 53 79 d7 37 71 3f
       0.0016591929900590023 0.004203645415344781
